…
{\*\expandedcolortbl;;}
\paperw11900\paperh16840\margl1440\margr1440\vieww11520\viewh8400\viewkind0
\pard\tx720\tx1440\tx2160\tx2880\tx3600\tx4320\tx5040\tx5760\tx6480\tx7200\tx7920\tx8640\pardirnatural\partightenfactor0

\f0\fs24 \cf0 Train Data Shape: (1851, 150, 150, 3)\
Train Labels Shape: (1851,)\
Test Data Shape: (200, 150, 150, 3)\
Test Labels Shape: (200,)\
Model: "sequential"\
_________________________________________________________________\
 Layer (type)                Output Shape              Param #   \
=================================================================\
 conv2d (Conv2D)             (None, 148, 148, 64)      1792      \
                                                                 \
 max_pooling2d (MaxPooling2D  (None, 74, 74, 64)       0         \
 )                                                               \
                                                                 \
 conv2d_1 (Conv2D)           (None, 72, 72, 128)       73856     \
                                                                 \
 max_pooling2d_1 (MaxPooling  (None, 36, 36, 128)      0         \
 2D)                                                             \
                                                                 \
 conv2d_2 (Conv2D)           (None, 34, 34, 256)       295168    \
                                                                 \
 max_pooling2d_2 (MaxPooling  (None, 17, 17, 256)      0         \
 2D)                                                             \
                                                                 \
 conv2d_3 (Conv2D)           (None, 15, 15, 512)       1180160   \
                                                                 \
 max_pooling2d_3 (MaxPooling  (None, 7, 7, 512)        0         \
 2D)                                                             \
                                                                 \
 flatten (Flatten)           (None, 25088)             0         \
                                                                 \
 dropout (Dropout)           (None, 25088)             0         \
                                                                 \
 dense (Dense)               (None, 512)               12845568  \
                                                                 \
 dense_1 (Dense)             (None, 1)                 513       \
                                                                 \
=================================================================\
Total params: 14,397,057\
Trainable params: 14,397,057\
Non-trainable params: 0\
_________________________________________________________________\
Epoch 1/10\
47/47 [==============================] - 68s 1s/step - loss: 0.7232 - accuracy: 0.5946 - val_loss: 0.8840 - val_accuracy: 0.0000e+00\
…
